plastics_cnn.pth (torch, 350017 bytes, 8 tensors)

conv1.weight f4 [10, 1, 5, 5]
0.088621624 0.10420958 -0.10758712 0.12231685 -0.104628764 -0.02430072 -0.15931897 0.05579921
0.11470138 -0.20823362 0.10934641 -0.024496721 0.08564196 -0.035109296 0.033902276 -0.09252958
0.0912827 -0.032942146 -0.15620174 -0.012366098 -0.155588 -0.08593117 -0.14306627 0.07022809
-0.22027397 -0.14073329 -0.10531564 -0.17014194 -0.032667156 -0.25072902 0.13572636 -0.21543087
0.10765847 -0.015851887 -0.117038205 0.082967505 -0.008924521 0.12074411 -0.021461854 -0.1102699
0.012553243 -0.09438486 0.04440639 0.13822994 0.07201876 -0.12868623 0.07579534 -0.0033823736
0.061820548 -0.16441013 -0.19919246 -0.078935854 -0.1562778 0.16422589 0.0545905 0.08347154
0.062025264 -0.0067755673 0.15381461 -0.14930539 0.0148351565 -0.13714899 0.056685228 -0.07615029
0.051017318 -0.03766262 0.16811037 -0.1244216 -0.1322388 -0.13476083 0.18664016 0.07190466
0.190179 -0.17697157 -0.21488039 -0.18369646 -0.15856421 0.06491479 0.061234057 0.15893951
-0.13240093 -0.16302082 0.08516701 -0.09755351 0.109723434 -0.07371602 0.08969609 -0.17803687
-0.12188262 0.04438505 0.018197248 -0.07414472 0.09742793 0.113899894 -0.16639538 -0.12960523
0.16139778 -0.08927932 -0.09411033 -0.21651259 -0.11518753 0.04934449 -0.027039787 -0.14610676
0.0034402208 -0.1370705 -0.17027 -0.11061116 -0.17553197 -0.12797762 0.19994846 0.03741167
0.06131751 -0.18687592 -0.13167356 -0.06635254 0.030901587 -0.17642173 -0.08655945 -0.120049946
0.001032201 -0.074526235 -0.014189646 -0.13599993 -0.13767378 -0.11565058 -0.06809986 -0.1566921
0.16966037 -0.03757675 0.17334528 0.06295332 -0.16860911 0.13965972 -0.05328342 -0.07579231
-0.16646905 -0.19851701 0.057563014 -0.0426683 0.07992532 -0.16290408 0.15072227 -0.14554408
-0.03327425 0.04482085 0.10636481 0.16537961 0.18464357 -0.15636364 0.03823439 -0.09846081
-0.035644412 -0.1640867 0.16891871 -0.15859771 0.09595375 0.058444515 0.051667437 -0.12199484
0.1709142 0.033958923 0.0152692525 -0.1893536 0.07024066 -0.043265317 -0.10399732 0.16034475
0.031098306 -0.12550706 -0.115432814 -0.023001239 0.099246815 -0.06481725 -0.12889935 -0.098842114
-0.17963333 0.041961074 0.12532789 -0.21841232 0.01716213 0.07393712 0.0072287484 -0.100290254
0.07498859 0.07668356 0.04647498 -0.06304094 -0.080682464 -0.006995536 -0.06507205 -0.088668376
0.100024916 0.14506352 -0.04758318 -0.074763946 -0.026284005 -0.039640248 0.02131776 0.028881887
-0.17313606 -0.06562027 0.17706537 0.08753325 8.5878295e-05 -0.11222436 -0.11637681 -0.17646918
-0.06051781 0.074967995 0.1431762 0.10332168 -0.17299575 -0.115195446 -0.02509578 0.21256281
0.04496049 -0.043343555 0.0918708 -0.069190584 -0.114384666 0.1602463 -0.08282402 -0.032081097
-0.1931674 0.1201251 0.1380578 0.057112943 -0.15899655 -0.21805121 -0.17981644 0.1321676
0.07699635 0.14632161 0.08200524 0.0297367 -0.024618017 -0.1769076 -0.19766267 -0.21338798
0.057954118 -0.12409335 -0.06724401 -0.14261575 -0.06337878 -0.16641419 -0.15697496 0.040090576
-0.08545123 0.09850238
00000000: 417f b53d d56b d53d a356 dcbd 4281 fa3d
00000010: 9b47 d6bd 4e12 c7bc 8324 23be b68d 643d
00000020: 8fe8 ea3d 323b 55be 03f1 df3d 59ad c8bc
00000030: 0d65 af3d c4ce 0fbd 1ddd 0a3d 2680 bdbd
00000040: 6df2 ba3d 58ee 06bd 59f3 1fbe 2d9b 4abc
00000050: 7652 1fbe aefc afbd f77f 12be bfd3 8f3d
00000060: 808f 61be 631c 10be baaf d7bd b039 2ebe
00000070: ffcd 05bd 8e5f 80be dafb 0a3e e999 5cbe
00000080: 0b7c dc3d d1db 81bc bab1 efbd deea a93d
00000090: 2738 12bc b048 f73d c5d0 afbc 2fd5 e1bd
000000a0: 1eac 4d3c d94c c1bd 7ae3 353d 268c 0d3e
000000b0: 927e 933d 53c6 03be 963a 9b3d d0aa 5dbb
000000c0: 8b37 7d3d 215b 28be 1cf9 4bbe 1fa9 a1bd
000000d0: 4a07 20be d52a 283e 4a9a 5f3d 20f3 aa3d
000000e0: 340e 7e3d 9405 debb 9481 1d3e 83e3 18be
000000f0: 280f 733c c970 0cbe c52e 683d aff4 9bbd
00000100: 89f7 503d 1f44 1abd 2025 2c3e c0d0 febd
00000110: 9c69 07be befe 09be 991e 3f3e c042 933d
00000120: 49be 423e 0938 35be 9b09 5cbe ed1a 3cbe
00000130: a85e 22be 0cf2 843d 90d0 7a3d 0ac1 223e
00000140: 1c94 07be eeee 26be 0b6c ae3d 22ca c7bd
00000150: aeb6 e03d 6df8 96bd 95b2 b73d 4c4f 36be
00000160: 989d f9bd 19cd 353d 6512 953c 30d9 97bd
00000170: 4b88 c73d 5944 e93d 8d63 2abe 3cb7 04be
00000180: 7645 253e 13d8 b6bd ebbc c0bd 7ab5 5dbe
00000190: 71e7 ebbd 731d 4a3d 8b82 ddbc 039d 15be
000001a0: 5475 613b 365c 0cbe 425b 2ebe 1b88 e2bd
000001b0: a7be 33be 910c 03be 4abf 4c3e fb3c 193d
000001c0: 1228 7b3d 675c 3fbe 6fd5 06be d7e3 87bd
000001d0: 5325 fd3c e6a7 34be 1546 b1bd bfdc f5bd
000001e0: eb4a 873a 36a1 98bd b07b 68bc 9143 0bbe
000001f0: 5bfa 0cbe 36da ecbd f077 8bbd e573 20be
00000200: 73bb 2d3e 14ea 19bd 6d81 313e aced 803d
00000210: dea7 2cbe f502 0f3e b73f 5abd 0039 9bbd
00000220: dd76 2abe 0b48 4bbe 32c7 6b3d f5c4 2ebd
00000230: e3af a33d 54d0 26be f056 1a3e 8209 15be
00000240: 944a 08bd 1196 373d cbd5 d93d 4659 293e
00000250: 3413 3d3e ca1d 20be aa9b 1c3d d2a5 c9bd
00000260: e0ff 11bd 5806 28be 07f9 2c3e 7067 22be
00000270: 6683 c43d 8463 6f3d 3ca1 533d 6ed8 f9bd
00000280: 2204 2f3e 8318 0b3d e32b 7a3c e9e5 41be
00000290: 56da 8f3d f936 31bd 8cfc d4bd 6a31 243e
000002a0: e0c1 fe3c ec84 00be 0a68 ecbd 186d bcbc
000002b0: ea41 cb3d e8be 84bd 31fe 03be bc6d cabd
000002c0: cdf1 37be 60df 2b3d f455 003e 7ba7 5fbe
000002d0: 9897 8c3c 586c 973d 23df ec3b fa64 cdbd
000002e0: 9e93 993d 450c 9d3d 8c5c 3e3d 9c1b 81bd
000002f0: d93c a5bd cf3a e5bb 7f44 85bd c497 b5bd
00000300: ddd9 cc3d 888b 143e 95e6 42bd d71d 99bd
00000310: 8e51 d7bc d05d 22bd 95a2 ae3c b599 ec3c
00000320: 944a 31be ec63 86bd a050 353e a244 b33d
00000330: 8f19 b438 e3d5 e5bd f756 eebd 56b4 34be
00000340: 86e1 77bd d288 993d c89c 123e 519a d33d
00000350: cc25 31be 97eb ebbd aa95 cdbc 11aa 593e
00000360: 7e28 383d 0389 31bd c226 bc3d cbb3 8dbd
00000370: 8242 eabd 9b17 243e a49f a9bd 7867 03bd
00000380: adcd 45be 2604 f63d 065f 0d3e 43ef 693d
00000390: fecf 22be d148 5fbe cd21 38be f156 073e
000003a0: 43b0 9d3d 55d5 153e 5df2 a73d 619a f33c
000003b0: b9ab c9bc 4427 35be 1568 4abe 6182 5abe
000003c0: 4c61 6d3d a724 febd 3ab7 89bd dd09 12be
000003d0: bccc 81bd 7b68 2abe 0bbe 20be 0436 243d
000003e0: 0e01 afbd 9ebb c93d

conv1.bias f4 [10]
-0.095380425 -0.15921268 -0.023963645 -0.09503227 -0.05887375 -0.18851195 0.10976498 -0.14494011
0.12515925 0.09101113
00000000: d056 c3bd a608 23be 684f c4bc 47a0 c2bd
00000010: 9a25 71bd 4709 41be 76cc e03d 2e6b 14be
00000020: bf29 003e 0b64 ba3d

conv2.weight f4 [20, 10, 5, 5]
0.040157273 -0.055119313 0.039184652 -0.03671127 0.016404215 0.054460615 -0.015636628 -0.007345199
-0.021799613 -0.060671166 0.024904229 -0.06983242 0.032759722 0.04058468 0.05260867 -0.02197892
-0.060069423 0.0068489 0.027534982 -0.07109814 -0.021117803 -0.04573345 -0.013103621 -0.038718104
-0.03406591 -0.022877512 -0.06442513 0.04987506 0.050390005 -0.01309755 -0.012311205 -0.032632366
-0.062251404 -0.06722432 0.018306298 -0.040680956 -0.047424454 -0.009732983 -0.02670408 -0.026055133
-0.003390475 -0.020101996 -0.026429128 -0.035547916 -0.057091728 0.05191352 -0.028858999 0.014774838
-0.023786537 0.0030919781 0.055948447 0.023821026 -0.0625797 0.019592112 0.055999618 0.012167317
0.03634504 0.056925077 -0.015762437 0.007342592 -0.04993653 -0.019919097 0.042403635 0.02742149
-0.047506206 -0.05492193 -0.049213838 -0.068942286 -0.05438991 -0.020923637 0.040911872 0.0056119817
-0.05594441 -0.0569972 0.028438818 -0.06309711 -0.023776928 0.0149081545 -0.044883367 -0.022880811
-0.021931088 -0.031660847 -0.04825759 -0.07248467 -0.06768936 -0.050578855 0.04456244 -0.04690129
-0.05909714 -0.0013428503 0.0010486243 0.018381832 0.031320136 0.018553173 -0.07926891 -0.011042097
0.022425583 -0.0226817 -0.05420469 0.045178372 -0.02346638 -0.03577901 -0.05715633 0.0025963034
0.027329601 0.014003628 0.012256882 -0.04832639 -0.058768336 0.0010509475 0.057400573 0.03624329
-0.036924608 -0.007722769 -0.046121374 -0.030542111 0.01102197 0.03355158 0.052519687 -0.057883445
0.042648494 -0.04492019 0.022866081 0.053807035 0.0017435037 0.05829492 -0.05372786 -0.02364055
0.03728301 -0.013292796 -0.012940591 -0.025824564 0.04461624 0.031088414 0.020685643 -0.035565194
-0.050849177 0.0077882097 0.018972369 -0.029122774 -0.016885359 0.044184357 0.006450437 0.0040836986
-0.014361557 -0.05631787 -0.058260646 -0.029168611 -0.03136185 0.021523593 -0.017064271 -0.023947638
0.062001344 0.0230685 0.04586439 -0.0300018 -0.02573777 0.02439632 -0.041361593 -0.0411341
-0.0020365375 -0.02285707 -0.04604834 0.038939096 0.05174098 0.011232821 -0.01080036 -0.057831887
-0.022399148 0.016530314 0.03132126 -0.007428097 -0.024398789 0.03633655 -0.04980562 0.038122337
-0.026460413 -0.00037834933 -0.0137791615 0.006504035 -0.021752158 0.043660108 -0.0033667209 0.04761388
0.059245326 -0.03387973 -0.048910785 0.04887795 0.047757417 -0.049978793 -0.0076651457 -0.065233715
-0.053863727 0.010348672 0.01503119 0.011538963 -0.019111028 0.056914873 0.0075602075 -0.038630478
-0.002145295 0.016561236 0.02341754 -0.04350097 0.025002234 -0.030373946 -0.05187131 -0.03348344
0.06291816 0.05626358 0.059114505 0.038726445 0.050011724 -0.006336877 -0.033180255 0.03362483
-0.031394206 -0.041806247 -0.01816699 0.015065151 0.035428405 -0.022712342 -0.036359344 0.010132328
-0.03462972 -0.049951196 0.025240507 -0.0187804 0.049825173 0.053119384 0.011647379 0.014302003
0.0063009756 -0.007161377 -0.012629004 -0.0070925495 0.0149784 0.050098114 -0.024587587 -0.034847863
-0.023304647 -0.03892059 0.002842904 0.03959864 0.041493475 0.021328935 -0.054780558 -0.04263175
-0.022351889 -0.020542523 -0.0013190821 -0.06406706 0.014351686 -0.05331229 -0.04523735 -0.060598623
00000000: f47b 243d cac4 61bd 1680 203d 8f5e 16bd
00000010: 2262 863c 1812 5f3d 6318 80bc ffaf f0bb
00000020: 1a95 b2bc 5482 78bd f403 cc3c 4d04 8fbd
00000030: 0f2f 063d 1f3c 263d 307c 573d 230d b4bc
00000040: 5b0b 76bd bd6c e03b 0b91 e13c e79b 91bd
00000050: 3eff acbc 0053 3bbd 92b0 56bc e096 1ebd
00000060: b288 0bbd 9f69 bbbc 53f1 83bd ca49 4c3d
00000070: c065 4e3d 1b97 56bc f0b4 49bc 84a9 05bd
00000080: 54fb 7ebd e7ac 89bd 17f7 953c 13a1 26bd
00000090: 2540 42bd 1777 1fbc 84c2 dabc 9371 d5bc
000000a0: bb32 5ebb f1ac a4bc e681 d8bc b19a 11bd
000000b0: 04d9 69bd 45a3 543d b569 ecbc 2a12 723c
000000c0: fcdb c2bc c9a2 4a3b 332a 653d 5024 c33c
000000d0: c929 80bd a37f a03c db5f 653d 6d59 473c
000000e0: 89de 143d 452a 693d 3a20 81bc 209a f03b
000000f0: 3f8a 4cbd 602d a3bc 6faf 2d3d 08a3 e03c
00000100: de95 42bd d1f5 60bd 7394 49bd 9d31 8dbd
00000110: f4c7 5ebd 0c68 abbc 3593 273d b7e4 b73b
00000120: f725 65bd e575 69bd 86f8 e83c 0f39 81bd
00000130: d5c7 c2bc 5541 743c 9fd7 37bd 8a70 bbbc
00000140: d3a8 b3bc ceae 01bd c0a9 45bd d872 94bd
00000150: b8a0 8abd c62b 4fbd 1b87 363d 911b 40bd
00000160: d80f 72bd 9402 b0ba fe71 893a 7f95 963c
00000170: 8b49 003d d3fc 973c bd57 a2bd e9e9 34bc
00000180: dbb5 b73c f9ce b9bc bd05 5ebd f50c 393d
00000190: 913c c0bc 038d 12bd c21c 6abd be26 2a3b
000001a0: 54e2 df3c 796f 653c 17d1 483c e5f1 45bd
000001b0: 11b7 70bd f2bf 893a dd1c 6b3d d873 143d
000001c0: 423e 17bd 480f fdbb c4e9 3cbd 7333 fabc
000001d0: 7e95 343c 626d 093d e21e 573d 3117 6dbd
000001e0: 30b0 2e3d 3cfe 37bd a651 bb3c c464 5c3d
000001f0: 4786 e43a a7c6 6e3d bf11 5cbd d4a9 c1bc
00000200: 12b6 183d 07ca 59bc c604 54bc 098e d3bc
00000210: 85bf 363d 21ad fe3c f074 a93c cfac 11bd
00000220: 3a47 50bd 3d34 ff3b f16b 9b3c e292 eebc
00000230: 2a53 8abc a8fa 343d 305e d33b 8cd0 853b
00000240: bc4c 6bbc 91ad 66bd b7a2 6ebd 03f3 eebc
00000250: 4975 00bd 3f52 b03c 5fca 8bbc d62d c4bc
00000260: 1ff5 7d3d 27fa bc3c 4cdc 3b3d 56c6 f5bc
00000270: 04d8 d2bc cbda c73c c66a 29bd 3b7c 28bd
00000280: 6e77 05bb c03e bbbc 2f9d 3cbd 9a7e 1f3d
00000290: 5aee 533d de09 383c fef3 30bc 21e1 6cbd
000002a0: 6b7e b7bc 956a 873c b94a 003d 6567 f3bb
000002b0: f8df c7bc a2d5 143d fa00 4cbd 2b26 1c3d
000002c0: 82c3 d8bc 305d c6b9 fec1 61bc cd1f d53b
000002d0: 9531 b2bc f1d4 323d 34a4 5cbb c606 433d
000002e0: 3aab 723d 79c5 0abd ad56 48bd 3f34 483d
000002f0: 489d 433d 90b6 4cbd e72b fbbb 4199 85bd
00000300: 36a0 5cbd 7a8d 293c 6145 763c eb0d 3d3c
00000310: bb8e 9cbc 921f 693d 9ebb f73b fe3a 1ebd
00000320: 1498 0cbb 6eab 873c 24d6 bf3c 132e 32bd
00000330: 7cd1 cc3c c8d2 f8bc 0377 54bd ee25 09bd
00000340: 3cdb 803d a474 663d 0d22 723d 9f9f 1e3d
00000350: 18d9 4c3d 94a5 cfbb 05e8 07bd 31ba 093d
00000360: 3697 00bd 073d 2bbd f0d2 94bc d3d3 763c
00000370: 601d 113d 3c0f babc 89ed 14bd 1002 263c
00000380: e5d7 0dbd a099 4cbd 2ec5 ce3c 5ad9 99bc
00000390: 7b15 4c3d b693 593d a6d4 3e3c f352 6a3c
000003a0: 6a78 ce3b fca9 eabb e2e9 4ebc 9e68 e8bb
000003b0: f767 753c ae33 4d3d e86b c9bc a2bc 0ebd
000003c0: 63e9 bebc 326b 1fbd 0450 3a3b 2f32 223d
000003d0: 10f5 293d 05ba ae3c 9461 60bd a19e 2ebd
000003e0: 4f1b b7bc cb48 a8bc 0de5 acba 9735 83bd
000003f0: 5623 6b3c fd5d 5abd cd4a 39bd 4336 78bd

conv2.bias f4 [20]
0.34866932 -0.014667033 -0.035192367 -0.057406377 -0.032884564 0.2214343 0.088175334 -0.05640559
0.05494782 -0.014246157 0.082070485 0.36994755 -0.023879705 -0.02851103 0.39656323 -0.03985538
-0.010863323 -0.035150323 0.2647064 0.26367792
00000000: c984 b23e ff4d 70bc df25 10bd f322 6bbd
00000010: f7b1 06bd acbf 623e 4595 b43d 8c09 67bd
00000020: f710 613d b768 69bc 9214 a83d c469 bd3e
00000030: 5f9f c3bc f78f e9bc 560a cb3e 653f 23bd
00000040: 14fc 31bc c9f9 0fbd 9987 873e cb00 873e

fc1.weight f4 [50, 1620]
-0.012957539 0.015136491 0.021978552 0.008207908 -0.019614495 -0.006922693 0.018576412 0.016477749
-0.011203291 0.013553986 -0.018173078 0.005525181 0.020630423 0.0027878976 -0.021596078 0.0060362974
0.012092331 0.014334794 -0.019477183 -0.0066022645 -0.0030709868 -0.006149106 -0.0074392995 -0.011077012
0.0067211296 0.00997043 -0.007814708 0.016473114 -0.0021199088 0.0042411825 0.0044129346 -0.010136152
-0.0026552202 -0.0042337524 0.0076040896 -0.01565127 -0.014253904 -0.026569303 -0.012832341 0.005791292
0.017782543 -0.02671656 -0.011181956 0.013582451 -0.016360972 0.01337489 -0.0021576437 -0.025743006
0.0018028652 -0.017314263 0.0022228174 -0.024932288 0.020603182 -0.013923187 0.0129914535 -0.018601688
-0.023746816 0.007367739 0.0121803675 -0.003052981 -0.023868516 -0.009417995 -0.02062302 0.0045685256
0.0010280699 0.014494528 0.022398088 -0.014204971 0.01697597 0.014590658 0.001024801 -0.027278002
-0.020176068 0.008104416 0.016021304 0.010492608 -0.00019363394 -0.017023858 -0.024429498 -0.016758844
-0.0023211166 -0.00013780706 0.01721179 -0.019558072 0.01117549 0.018345563 -0.024496904 -0.015096183
-0.009736645 0.0018484234 0.01902767 0.0031045766 0.014766334 0.017636057 0.01733813 -0.024519052
-0.018203346 -0.004859055 -0.0037740911 -0.0009243361 0.018487258 0.02043691 -0.009195317 -0.0137738
0.00015359337 0.0011592561 0.01265589 0.005454705 0.0049501047 0.005665772 0.016234066 0.012971694
-0.0049778773 -0.019731509 0.0140633425 -0.0048808893 -0.021028062 -0.0077777915 0.014955589 -0.0138237
-0.005214109 0.0055083022 0.015238609 -0.006804673 -0.020778624 -0.013764173 -0.011300698 -0.0006420051
-0.019600589 0.019078622 0.0039824606 -0.021060461 0.010220656 -0.001993032 0.020796038 -0.0039766454
-0.003351071 -0.027184319 -0.023439795 -0.0030113186 0.017544273 -0.01859456 0.0017633972 -0.020373793
-0.022551848 -0.011835701 -0.019001417 -0.023270577 -0.0101491 -0.0064768046 0.009484766 0.008836799
-0.0028470897 -0.008568195 -0.0079112565 -0.02277894 0.014440405 0.019575255 -0.025647627 -0.025832579
-0.025076233 -0.006552218 -0.00010078778 -0.01622703 0.013733226 0.0016328634 -0.012578713 -0.024032574
0.019352093 0.024643397 0.002284529 -0.011943066 0.015791677 0.01463944 -0.0035699294 0.023304231
-0.018361455 -0.0028506904 0.021061908 -0.015387163 -0.0076965173 -0.010563233 -0.010173535 0.021883944
0.015311575 -0.022588203 -0.015202646 -0.00032461912 -0.008110358 -0.013719698 -0.024411958 0.018326826
0.013905929 0.007206466 -0.0055932244 -0.024081724 -0.0015516948 0.0094945375 -0.0072425446 0.0195701
0.0056880987 -0.0012316308 0.009811453 0.012936623 -0.018218858 0.007567206 -0.022574471 -0.0052475412
-0.008046295 0.018974166 -0.02393201 0.008823491 -0.022649333 0.010779257 0.00608899 -0.009771707
0.0072973785 0.023849955 0.0151346475 -0.022676568 -0.0064456305 0.02252955 0.003839964 0.0030619323
0.0017767055 -0.008779393 -0.0064955773 0.0016548727 0.01869726 -0.007009794 -0.006508713 0.004726521
-0.009087782 0.021667367 0.018681234 0.0010476443 -0.016067844 0.0069506005 0.021060867 0.00817624
0.01040866 -0.013147959 -0.024484817 -0.009343369 0.00079658534 0.022083446 0.0052039633 -0.004544885
-0.006214692 -0.0047256453 -0.013374629 -0.01043481 0.0046146265 0.016830653 0.021101937 0.009566809
00000000: dc4b 54bc 0bff 773c 5d0c b43c 767a 063c
00000010: 94ae a0bc c2d7 e2bb 8f2d 983c 58fc 863c
00000020: 028e 37bc 8a11 5e3c b5df 94bc 940c b53b
00000030: 2201 a93c 29b5 363b 42ea b0bc 22cc c53b
00000040: ea1e 463c 7cdc 6a3c 9d8e 9fbc cf57 d8bb
00000050: 9c42 49bb 717e c9bb 5ec5 f3bb 5b7c 35bc
00000060: ec3c dc3b 045b 233c 4309 00bc a0f2 863c
00000070: 2bee 0abb 9ef9 8a3b 619a 903b 1a12 26bc
00000080: 3403 2ebb 4abb 8abb ba2b f93b 1837 80bc
00000090: 3589 69bc dea7 d9bc bd3e 52bc e1c4 bd3b
000000a0: b2ac 913c b0dc dabc 8634 37bc ee88 5e3c
000000b0: 7207 86bc 5b22 5b3c 4167 0dbb ffe2 d2bc
000000c0: 1e4e ec3a a4d6 8dbc b0ac 113b cc3e ccbc
000000d0: 01c8 a83c 141e 64bc 1bda 543c 9162 98bc
000000e0: af88 c2bc 136d f13b 2a90 473c 8614 48bb
000000f0: e887 c3bc ef4d 1abc 9cf1 a8bc 92b3 953b
00000100: 4dc0 863a 757a 6d3c 327c b73c f7bb 68bc
00000110: 3011 8b3c a80d 6f3c 9e52 863a 1e76 dfbc
00000120: 4848 a5bc 62c8 043c 1c3f 833c 30e9 2b3c
00000130: 370a 4bb9 9e75 8bbc 5f20 c8bc d849 89bc
00000140: e01d 18bb 4d80 10b9 bdff 8c3c 4038 a0bc
00000150: 6719 373c 6f49 963c bbad c8bc fb55 77bc
00000160: 7386 1fbc cc46 f23a ebdf 9b3c 2776 4b3b
00000170: 7eee 713c 7e79 903c b208 8e3c 2edc c8bc
00000180: 2f1f 95bc b538 9fbb be56 77bb 254f 72ba
00000190: 9772 973c 4f6b a73c f4a7 16bc 81ab 61bc
000001a0: e80d 2139 2ef2 973a a65a 4f3c 62bd b23b
000001b0: 7d34 a23b f1a7 b93b 4efd 843c 3a87 543c
000001c0: 761d a3bb f9a3 a1bc ef69 663c deef 9fbb
000001d0: 0b43 acbc d8dc febb 4908 753c cd7c 62bc
000001e0: 1edb aabb fd7e b43b 5cab 793c bcf9 debb
000001f0: ef37 aabc 2083 61bc 9026 39bc 3c4c 28ba
00000200: 6a91 a0bc c54a 9c3c 4d7f 823b fd86 acbc
00000210: 8a74 273c 879d 02bb 745c aa3c 854e 82bb
00000220: a49d 5bbb a6b1 debc d004 c0bc 8b59 45bb
00000230: 02b9 8f3c 9e53 98bc cb21 e73a f1e6 a6bc
00000240: a7be b8bc 87ea 41bc dca8 9bbc f0a1 bebc
00000250: 6948 26bc 603b d4bb fe65 1b3c 39c8 103c
00000260: 3d96 3abb 9d61 0cbc 379e 01bc e69a babc
00000270: 7397 6c3c 495c a03c f91a d2bc d89e d3bc
00000280: ac6c cdbc fdb3 d6bb 075e d3b8 8cee 84bc
00000290: 5301 613c ce05 d63a f216 4ebc f6df c4bc
000002a0: 4888 9e3c f3e0 c93c 09b8 153b d9ac 43bc
000002b0: 8c5d 813c 43da 6f3c 7af5 69bb 84e8 be3c
000002c0: c36a 96bc a6d2 3abb 068a ac3c 701a 7cbc
000002d0: 1133 fcbb 6911 2dbc e6ae 26bc f545 b33c
000002e0: 66dd 7a3c e50a b9bc 8514 79bc a431 aab9
000002f0: 4fe1 04bc 96c8 60bc 96fb c7bc 2422 963c
00000300: b2d5 633c 3824 ec3b 5e47 b7bb 0947 c5bc
00000310: 3d62 cbba fa8e 1b3c de52 edbb 7951 a03c
00000320: 3b63 ba3b ac6e a1ba 37c0 203c 21f4 533c
00000330: b73f 95bc 53f6 f73b 19ee b8bc 91f3 abbb
00000340: 9bd4 03bc b66f 9b3c 100d c4bc 6790 103c
00000350: 188b b9bc 7b9b 303c 2686 c73b 8219 20bc
00000360: d91e ef3b fb60 c33c 50f7 773c 36c4 b9bc
00000370: de35 d3bb e48f b83c e8a7 7b3b b3aa 483b
00000380: 58e0 e83a 71d7 0fbc dad8 d4bb 50e8 d83a
00000390: ff2a 993c 6ab2 e5bb 0b47 d5bb efe0 9a3b
000003a0: ece4 14bc c37f b13c 6309 993c 1c51 893a
000003b0: b6a0 83bc ddc1 e33b d787 ac3c a3f5 053c
000003c0: 1689 2a3c 896a 57bc 6294 c8bc ee14 19bc
000003d0: f0d1 503a 58e8 b43c 0286 aa3b 42ed 94bb
000003e0: 9da4 cbbb 96d9 9abb 4321 5bbc c4f6 2abc
000003f0: 4b36 973b 70e0 893c f8dd ac3c 1bbe 1c3c

fc1.bias f4 [50]
0.021376608 -0.01738399 0.001332699 0.019403277 -0.001003514 -0.0044744983 -0.008204979 -0.017126286
-0.023830669 0.030447276 0.0025341795 0.017428242 0.1094038 0.0018402474 -0.008608989 0.06418218
-0.0007021607 0.020309385 0.03631642 -0.020639865 -0.019313904 -0.02247603 0.014128623 0.00951309
0.019952806 0.0019771436 0.0023604468 -0.00071252015 0.015283895 0.003134084 0.05553474 0.022660768
0.020260219 0.0010544906 0.043235846 -0.016064653 -0.0012997891 0.0037443875 0.024972618 0.024214065
-0.0060178693 -0.00037744406 0.035223596 0.012168065 0.0658061 -0.016839543 0.024070818 -0.021196323
0.006389698 0.021780219
00000000: ff1d af3c df68 8ebc f5ad ae3a 9ff3 9e3c
00000010: 5888 83ba d09e 92bb 2d6e 06bc 6d4c 8cbc
00000020: 8938 c3bc 916c f93c 7a14 263b acc5 8e3c
00000030: 190f e03d 7534 f13a b80c 0dbc f271 833d
00000040: 3511 38ba de5f a63c 87c0 143d ef14 a9bc
00000050: 3138 9ebc a71f b8bc bd7b 673c cbdc 1b3c
00000060: 1174 a33c f792 013b bab1 1a3b 6bc8 3aba
00000070: 4d69 7a3c 3465 4d3b 6578 633d 13a3 b93c
00000080: c2f8 a53c d536 8a3a 1218 313d 059a 83bc
00000090: af5d aaba 6664 753b 6093 cc3c 935c c63c
000000a0: 8c31 c5bb afe3 c5b9 9e46 103d 905c 473c
000000b0: 59c5 863d 15f3 89bc 2a30 c53c e9a3 adbc
000000c0: ac60 d13b 6e6c b23c

fc2.weight f4 [10, 50]
-0.03316113 -0.02500784 0.10684445 -0.07586248 -0.039231285 -0.065685414 -0.115819305 -0.11716171
0.1123646 0.05190007 -0.116336964 -0.10965743 0.09769401 -0.025494713 -0.057172902 0.05523355
-0.052329507 0.05279891 0.050693676 -0.0783937 -0.088339664 0.09073196 -0.08551644 0.022644177
0.019011231 -0.029448658 -0.045718715 0.012251757 0.075805925 0.017279427 0.15637486 0.095842674
-0.035566255 -0.0108146975 0.083162464 -0.064107254 0.066189416 0.14849734 -0.0035343908 0.019704787
-0.13379982 -0.11977721 0.12173817 0.019895634 0.0603411 -0.028183533 0.053737924 -0.08335123
-0.078197405 0.057748947 -0.018758789 -0.06646083 0.120338276 0.08872561 0.03438939 -0.011515347
0.13803762 -0.069219664 0.03794127 0.081379294 0.021339908 0.050369326 0.10167717 -0.05997
0.061782133 0.08287408 0.10797793 -0.069329634 0.018546056 -0.04166066 -0.018815013 0.008429564
-0.11521608 -0.014859205 0.12725629 -0.00024483373 -0.01576429 -0.07906296 -0.068069644 0.03524666
0.114737265 -0.06815287 0.045893442 -0.024553232 0.068303965 0.032012496 -0.09151997 -0.050329998
0.011791944 0.057801936 0.111734435 -0.02608753 0.11478054 0.0062355106 0.10377737 -0.028349806
0.07730376 -8.8873225e-05 -0.02369324 -0.002852046 -0.03156178 0.06008243 0.10794957 0.08335496
0.0024988058 0.10068384 -0.12626196 0.10593217 -0.08080403 0.11615997 0.029048108 0.050482813
0.18485415 0.0059148883 -0.058350705 0.1392698 0.037544318 0.027383534 0.08120661 -0.010470467
0.07007046 -0.1047775 0.045178216 -0.058896206 0.03719689 -0.028762273 -0.03235744 0.09320821
0.13187583 -0.02045832 0.13009475 -0.08774179 0.08010375 -0.019876879 0.093150996 0.09626074
-0.10990335 -0.11373252 0.09594619 0.034773808 0.1337156 0.08187072 0.08024516 -0.054453403
0.10177603 -0.066873595 0.072738454 -0.014896469 0.0986896 -0.030114766 0.087050766 -0.13550173
-0.118226066 -0.038879734 0.122542076 0.03306227 -0.0025276113 0.011389548 0.097591355 0.1674055
0.04885298 -0.091908544 0.4819373 -0.07252252 0.0573979 0.36320758 -0.0791342 -0.028062597
0.24601296 -0.061515506 0.059726246 -0.020523662 -0.10487992 0.108298585 -0.0348898 0.09705799
0.056361627 -0.07579123 0.0695284 -0.10694474 0.3663227 0.07874761 -0.014894286 -0.018605068
0.18540281 0.10280163 0.00018802036 0.07236984 -0.059733868 0.008445284 -0.055702705 0.067469195
0.2927875 0.049910467 0.34373105 -0.070184276 0.17581297 -0.12133582 0.018385096 -0.010881052
0.11905251 0.07105404 -0.09324074 0.13956662 0.12328739 -0.0405948 0.13645817 0.10358078
-0.09263568 -0.09975354 0.08246654 -0.004475227 0.0059031546 -0.05067556 -0.034452517 -0.18217951
0.091093525 -0.04460156 0.068840936 -0.031515323 0.05453093 0.0954356 0.108884156 0.049323257
-0.04502878 0.002851005 -0.0985968 -0.047763143 -0.03314471 -0.1317856 -0.11079651 0.12341351
0.020418994 0.09898917 -0.15252644 -0.037247814 0.05850261 -0.04484214 -0.0886373 -0.12956388
-0.046092868 -0.033851057 0.045956258 -0.018252116 -0.10531582 0.13704263 0.088615276 -0.04247185
-0.11952594 -0.04872795 -0.09394149 -0.117237106 -0.05480682 0.08024794 -0.04499918 0.006666896
00000000: f7d3 07bd 3edd ccbc 43d1 da3d ca5d 9bbd
00000010: fcb0 20bd 1386 86bd ac32 edbd 7bf2 efbd
00000020: 691f e63d 2b95 543d 1342 eebd 1394 e0bd
00000030: cc13 c83d 4ada d0bc 222e 6abd 933c 623d
00000040: 7757 56bd ab43 583d 2ca4 4f3d e08c a0bd
00000050: 6deb b4bd aed1 b93d 3e23 afbd 4880 b93c
00000060: 71bd 9b3c 503e f1bc 8c43 3bbd 98bb 483c
00000070: 2340 9b3d 968d 8d3c bb20 203e 2a49 c43d
00000080: ecad 11bd 2130 31bc 1551 aa3d aa4a 83bd
00000090: 518e 873d b00f 183e 3da1 67bb ef6b a13c
000000a0: d202 09be c14d f5bd dd51 f93d 2bfc a23c
000000b0: 3b28 773d 27e1 e6bc 4c1c 5c3d 0db4 aabd
000000c0: f625 a0bd 298a 6c3d 08ac 99bc 9e1c 88bd
000000d0: ea73 f63d c6b5 b53d e4db 0c3d deaa 3cbc
000000e0: bc59 0d3e 0ac3 8dbd 4e68 1b3d 30aa a63d
000000f0: 08d1 ae3c 1150 4e3d 1f3c d03d 1aa3 75bd
00000100: 430f 7d3d e3b9 a93d 8823 dd3d b2fc 8dbd
00000110: e6ed 973c 5ea4 2abd f121 9abc 271c 0a3c
00000120: 68f6 ebbd 0674 73bc 794f 023e 075d 80b9
00000130: 1d24 81bc c3eb a1bd 1968 8bbd cd5e 103d
00000140: 5ffb ea3d bb93 8bbd c3fa 3b3d dc23 c9bc
00000150: f3e2 8b3d 891f 033d d26e bbbd d426 4ebd
00000160: ff32 413c b9c1 6c3d 06d5 e43d 84b5 d5bc
00000170: 0f12 eb3d 4153 cc3b 3b89 d43d da3d e8bc
00000180: 6f51 9e3d 7361 bab8 5318 c2bc 64e9 3abb
00000190: ed46 01bd fe18 763d aa14 dd3d 01b6 aa3d
000001a0: 01c3 233b 5433 ce3d d14a 01be f7f2 d83d
000001b0: 957c a5bd 47e5 ed3d 4cf6 ed3c 11c7 4e3d
000001c0: 684a 3d3e aed1 c13b 2601 6fbd be9c 0e3e
000001d0: 12c8 193d 6f53 e03c a74f a63d 528c 2bbc
000001e0: 1a81 8f3d 9695 d6bd cb0c 393d 263d 71bd
000001f0: c45b 183d dc9e ebbc 3c89 04bd f2e3 be3d
00000200: 750a 073e 3598 a7bc 8f37 053e f8b1 b3bd
00000210: 6f0d a43d d6d4 a2bc f3c5 be3d 5a24 c53d
00000220: 0215 e1bd 98ec e8bd 707f c43d fb6e 0e3d
00000230: beec 083e d6ab a73d 9357 a43d 880a 5fbd
00000240: f46f d03d 06f5 88bd e6f7 943d 5210 74bc
00000250: c61d ca3d 3eb3 f6bc ac47 b23d f7c0 0abe
00000260: 8220 f2bd 5b40 1fbd 57f7 fa3d 4e6c 073d
00000270: 48a6 25bb 3a9b 3a3c fadd c73d 596c 2b3e
00000280: 101a 483d 8c3a bcbd 7cc0 f63e b086 94bd
00000290: 0f1a 6b3d 58f6 b93e 1d11 a2bd 88e3 e5bc
000002a0: d2ea 7b3e aff7 7bbd 82a3 743d 3d21 a8bc
000002b0: 49cb d6bd a6cb dd3d 9be8 0ebd 57c6 c63d
000002c0: 73db 663d 6f38 9bbd e864 8e3d d805 dbbd
000002d0: a68e bb3e 6d46 a13d 2a07 74bc a869 98bc
000002e0: 3cda 3d3e a989 d23d 5527 4539 a436 943d
000002f0: 80ab 74bd 175e 0a3c 8528 64bd 4a2d 8a3d
00000300: 3ee8 953e eb6e 4c3d 84fd af3e c6bc 8fbd
00000310: 5108 343e ea7e f8bd 579c 963c 7146 32bc
00000320: cdd1 f33d c884 913d 00f5 bebd 8dea 0e3e
00000330: 197e fc3d bc46 26bd b1bb 0b3e 2922 d43d
00000340: c7b7 bdbd 954b ccbd 38e4 a83d eda4 92bb
00000350: 406f c13b 2d91 4fbd 151e 0dbd 448d 3abe
00000360: 3e8f ba3d 20b0 36bd 7afc 8c3d 3616 01bd
00000370: d35b 5f3d bd73 c33d a8fe de3d 2f07 4a3d
00000380: 1970 38bd edd7 3a3b 1eed c9bd 49a3 43bd
00000390: bfc2 07bd cef2 06be 48e9 e2bd 39c0 fc3d
000003a0: bc45 a73c d5ba ca3d e42f 1cbe 2a91 18bd
000003b0: 6fa0 6f3d 64ac 37bd 7987 b5bd 65ac 04be
000003c0: e0cb 3cbd 68a7 0abd a13c 3c3d 7685 95bc
000003d0: d2af d7bd e754 0c3e ed7b b53d f6f6 2dbd
000003e0: 04ca f4bd f596 47bd 6564 c0bd 021a f0bd
000003f0: 1e7d 60bd 0859 a43d 0f51 38bd fa75 da3b

fc2.bias f4 [10]
-0.061797906 0.090675645 0.15651666 0.13677014 -0.027209483 -0.12218664 -0.11668517 -0.120394066
0.04138834 -0.14655285
00000000: cd1f 7dbd 27b4 b93d e745 203e 790d 0c3e
00000010: 6ce6 debc fd3c fabd a2f8 eebd 2a91 f6bd
00000020: d286 293d f311 16be
